layer {
  name: "data"
  type: "Input"
  top: "data"
  input_param {
    shape {
      dim: 1
      dim: 3
      dim: 300
      dim: 300
    }
  }
}
layer {
  name: "conv2d_1"
  type: "Convolution"
  bottom: "data"
  top: "conv2d_1"
  convolution_param {
    num_output: 32
    bias_term: true
    kernel_size: 3
    stride: 2
  }
}
layer {
  name: "activation_1"
  type: "ReLU"
  bottom: "conv2d_1"
  top: "conv2d_1"
}
layer {
  name: "conv2d_2"
  type: "Convolution"
  bottom: "conv2d_1"
  top: "conv2d_2"
  convolution_param {
    num_output: 32
    bias_term: true
    kernel_size: 3
    stride: 1
  }
}
layer {
  name: "activation_2"
  type: "ReLU"
  bottom: "conv2d_2"
  top: "conv2d_2"
}
layer {
  name: "conv2d_3"
  type: "Convolution"
  bottom: "conv2d_2"
  top: "conv2d_3"
  convolution_param {
    num_output: 64
    bias_term: true
    pad: 1
    kernel_size: 3
    stride: 1
  }
}
layer {
  name: "activation_3"
  type: "ReLU"
  bottom: "conv2d_3"
  top: "conv2d_3"
}
layer {
  name: "max_pooling2d_1"
  type: "Pooling"
  bottom: "conv2d_3"
  top: "max_pooling2d_1"
  pooling_param {
    pool: MAX
    kernel_size: 3
    stride: 2
    pad: 0
  }
}
layer {
  name: "conv2d_4"
  type: "PointwiseConvolution"
  bottom: "max_pooling2d_1"
  top: "conv2d_4"
  convolution_param {
    num_output: 80
    bias_term: true
    kernel_size: 1
    stride: 1
  }
}
layer {
  name: "activation_4"
  type: "ReLU"
  bottom: "conv2d_4"
  top: "conv2d_4"
}
layer {
  name: "conv2d_5"
  type: "Convolution"
  bottom: "conv2d_4"
  top: "conv2d_5"
  convolution_param {
    num_output: 192
    bias_term: true
    kernel_size: 3
    stride: 1
  }
}
layer {
  name: "activation_5"
  type: "ReLU"
  bottom: "conv2d_5"
  top: "conv2d_5"
}
layer {
  name: "max_pooling2d_2"
  type: "Pooling"
  bottom: "conv2d_5"
  top: "max_pooling2d_2"
  pooling_param {
    pool: MAX
    kernel_size: 3
    stride: 2
    pad: 0
  }
}
layer {
  name: "conv2d_9"
  type: "PointwiseConvolution"
  bottom: "max_pooling2d_2"
  top: "conv2d_9"
  convolution_param {
    num_output: 64
    bias_term: true
    pad: 0
    kernel_size: 1
    stride: 1
  }
}
layer {
  name: "activation_9"
  type: "ReLU"
  bottom: "conv2d_9"
  top: "conv2d_9"
}
layer {
  name: "conv2d_7"
  type: "PointwiseConvolution"
  bottom: "max_pooling2d_2"
  top: "conv2d_7"
  convolution_param {
    num_output: 48
    bias_term: true
    pad: 0
    kernel_size: 1
    stride: 1
  }
}
layer {
  name: "conv2d_10"
  type: "Convolution"
  bottom: "conv2d_9"
  top: "conv2d_10"
  convolution_param {
    num_output: 96
    bias_term: true
    pad: 1
    kernel_size: 3
    stride: 1
  }
}
layer {
  name: "activation_7"
  type: "ReLU"
  bottom: "conv2d_7"
  top: "conv2d_7"
}
layer {
  name: "activation_10"
  type: "ReLU"
  bottom: "conv2d_10"
  top: "conv2d_10"
}
layer {
  name: "average_pooling2d_1"
  type: "Pooling"
  bottom: "max_pooling2d_2"
  top: "average_pooling2d_1"
  pooling_param {
    pool: AVE
    kernel_size: 3
    stride: 1
    pad: 1
  }
}
layer {
  name: "conv2d_6"
  type: "PointwiseConvolution"
  bottom: "max_pooling2d_2"
  top: "conv2d_6"
  convolution_param {
    num_output: 64
    bias_term: true
    pad: 0
    kernel_size: 1
    stride: 1
  }
}
layer {
  name: "conv2d_8"
  type: "Convolution"
  bottom: "conv2d_7"
  top: "conv2d_8"
  convolution_param {
    num_output: 64
    bias_term: true
    pad: 2
    kernel_size: 5
    stride: 1
  }
}
layer {
  name: "conv2d_11"
  type: "Convolution"
  bottom: "conv2d_10"
  top: "conv2d_11"
  convolution_param {
    num_output: 96
    bias_term: true
    pad: 1
    kernel_size: 3
    stride: 1
  }
}
layer {
  name: "conv2d_12"
  type: "PointwiseConvolution"
  bottom: "average_pooling2d_1"
  top: "conv2d_12"
  convolution_param {
    num_output: 32
    bias_term: true
    pad: 0
    kernel_size: 1
    stride: 1
  }
}
layer {
  name: "activation_6"
  type: "ReLU"
  bottom: "conv2d_6"
  top: "conv2d_6"
}
layer {
  name: "activation_8"
  type: "ReLU"
  bottom: "conv2d_8"
  top: "conv2d_8"
}
layer {
  name: "activation_11"
  type: "ReLU"
  bottom: "conv2d_11"
  top: "conv2d_11"
}
layer {
  name: "activation_12"
  type: "ReLU"
  bottom: "conv2d_12"
  top: "conv2d_12"
}
layer {
  name: "mixed0"
  type: "Concat"
  bottom: "conv2d_6"
  bottom: "conv2d_8"
  bottom: "conv2d_11"
  bottom: "conv2d_12"
  top: "mixed0"
  concat_param {
    axis: 1
  }
}
layer {
  name: "conv2d_16"
  type: "PointwiseConvolution"
  bottom: "mixed0"
  top: "conv2d_16"
  convolution_param {
    num_output: 64
    bias_term: true
    pad: 0
    kernel_size: 1
    stride: 1
  }
}
layer {
  name: "activation_16"
  type: "ReLU"
  bottom: "conv2d_16"
  top: "conv2d_16"
}
layer {
  name: "conv2d_14"
  type: "PointwiseConvolution"
  bottom: "mixed0"
  top: "conv2d_14"
  convolution_param {
    num_output: 48
    bias_term: true
    pad: 0
    kernel_size: 1
    stride: 1
  }
}
layer {
  name: "conv2d_17"
  type: "Convolution"
  bottom: "conv2d_16"
  top: "conv2d_17"
  convolution_param {
    num_output: 96
    bias_term: true
    pad: 1
    kernel_size: 3
    stride: 1
  }
}
layer {
  name: "activation_14"
  type: "ReLU"
  bottom: "conv2d_14"
  top: "conv2d_14"
}
layer {
  name: "activation_17"
  type: "ReLU"
  bottom: "conv2d_17"
  top: "conv2d_17"
}
layer {
  name: "average_pooling2d_2"
  type: "Pooling"
  bottom: "mixed0"
  top: "average_pooling2d_2"
  pooling_param {
    pool: AVE
    kernel_size: 3
    stride: 1
    pad: 1
  }
}
layer {
  name: "conv2d_13"
  type: "PointwiseConvolution"
  bottom: "mixed0"
  top: "conv2d_13"
  convolution_param {
    num_output: 64
    bias_term: true
    pad: 0
    kernel_size: 1
    stride: 1
  }
}
layer {
  name: "conv2d_15"
  type: "Convolution"
  bottom: "conv2d_14"
  top: "conv2d_15"
  convolution_param {
    num_output: 64
    bias_term: true
    pad: 2
    kernel_size: 5
    stride: 1
  }
}
layer {
  name: "conv2d_18"
  type: "Convolution"
  bottom: "conv2d_17"
  top: "conv2d_18"
  convolution_param {
    num_output: 96
    bias_term: true
    pad: 1
    kernel_size: 3
    stride: 1
  }
}
layer {
  name: "conv2d_19"
  type: "PointwiseConvolution"
  bottom: "average_pooling2d_2"
  top: "conv2d_19"
  convolution_param {
    num_output: 64
    bias_term: true
    pad: 0
    kernel_size: 1
    stride: 1
  }
}
layer {
  name: "activation_13"
  type: "ReLU"
  bottom: "conv2d_13"
  top: "conv2d_13"
}
layer {
  name: "activation_15"
  type: "ReLU"
  bottom: "conv2d_15"
  top: "conv2d_15"
}
layer {
  name: "activation_18"
  type: "ReLU"
  bottom: "conv2d_18"
  top: "conv2d_18"
}
layer {
  name: "activation_19"
  type: "ReLU"
  bottom: "conv2d_19"
  top: "conv2d_19"
}
layer {
  name: "mixed1"
  type: "Concat"
  bottom: "conv2d_13"
  bottom: "conv2d_15"
  bottom: "conv2d_18"
  bottom: "conv2d_19"
  top: "mixed1"
  concat_param {
    axis: 1
  }
}
layer {
  name: "conv2d_23"
  type: "PointwiseConvolution"
  bottom: "mixed1"
  top: "conv2d_23"
  convolution_param {
    num_output: 64
    bias_term: true
    pad: 0
    kernel_size: 1
    stride: 1
  }
}
layer {
  name: "activation_23"
  type: "ReLU"
  bottom: "conv2d_23"
  top: "conv2d_23"
}
layer {
  name: "conv2d_21"
  type: "PointwiseConvolution"
  bottom: "mixed1"
  top: "conv2d_21"
  convolution_param {
    num_output: 48
    bias_term: true
    pad: 0
    kernel_size: 1
    stride: 1
  }
}
layer {
  name: "conv2d_24"
  type: "Convolution"
  bottom: "conv2d_23"
  top: "conv2d_24"
  convolution_param {
    num_output: 96
    bias_term: true
    pad: 1
    kernel_size: 3
    stride: 1
  }
}
layer {
  name: "activation_21"
  type: "ReLU"
  bottom: "conv2d_21"
  top: "conv2d_21"
}
layer {
  name: "activation_24"
  type: "ReLU"
  bottom: "conv2d_24"
  top: "conv2d_24"
}
layer {
  name: "average_pooling2d_3"
  type: "Pooling"
  bottom: "mixed1"
  top: "average_pooling2d_3"
  pooling_param {
    pool: AVE
    kernel_size: 3
    stride: 1
    pad: 1
  }
}
layer {
  name: "conv2d_20"
  type: "PointwiseConvolution"
  bottom: "mixed1"
  top: "conv2d_20"
  convolution_param {
    num_output: 64
    bias_term: true
    pad: 0
    kernel_size: 1
    stride: 1
  }
}
layer {
  name: "conv2d_22"
  type: "Convolution"
  bottom: "conv2d_21"
  top: "conv2d_22"
  convolution_param {
    num_output: 64
    bias_term: true
    pad: 2
    kernel_size: 5
    stride: 1
  }
}
layer {
  name: "conv2d_25"
  type: "Convolution"
  bottom: "conv2d_24"
  top: "conv2d_25"
  convolution_param {
    num_output: 96
    bias_term: true
    pad: 1
    kernel_size: 3
    stride: 1
  }
}
layer {
  name: "conv2d_26"
  type: "PointwiseConvolution"
  bottom: "average_pooling2d_3"
  top: "conv2d_26"
  convolution_param {
    num_output: 64
    bias_term: true
    pad: 0
    kernel_size: 1
    stride: 1
  }
}
layer {
  name: "activation_20"
  type: "ReLU"
  bottom: "conv2d_20"
  top: "conv2d_20"
}
layer {
  name: "activation_22"
  type: "ReLU"
  bottom: "conv2d_22"
  top: "conv2d_22"
}
layer {
  name: "activation_25"
  type: "ReLU"
  bottom: "conv2d_25"
  top: "conv2d_25"
}
layer {
  name: "activation_26"
  type: "ReLU"
  bottom: "conv2d_26"
  top: "conv2d_26"
}
layer {
  name: "mixed2"
  type: "Concat"
  bottom: "conv2d_20"
  bottom: "conv2d_22"
  bottom: "conv2d_25"
  bottom: "conv2d_26"
  top: "mixed2"
  concat_param {
    axis: 1
  }
}
layer {
  name: "conv2d_28"
  type: "PointwiseConvolution"
  bottom: "mixed2"
  top: "conv2d_28"
  convolution_param {
    num_output: 64
    bias_term: true
    pad: 0
    kernel_size: 1
    stride: 1
  }
}
layer {
  name: "activation_28"
  type: "ReLU"
  bottom: "conv2d_28"
  top: "conv2d_28"
}
layer {
  name: "conv2d_29"
  type: "Convolution"
  bottom: "conv2d_28"
  top: "conv2d_29"
  convolution_param {
    num_output: 96
    bias_term: true
    pad: 1
    kernel_size: 3
    stride: 1
  }
}
layer {
  name: "activation_29"
  type: "ReLU"
  bottom: "conv2d_29"
  top: "conv2d_29"
}
layer {
  name: "conv2d_27"
  type: "Convolution"
  bottom: "mixed2"
  top: "conv2d_27"
  convolution_param {
    num_output: 384
    bias_term: true
    kernel_size: 3
    stride: 2
  }
}
layer {
  name: "conv2d_30"
  type: "Convolution"
  bottom: "conv2d_29"
  top: "conv2d_30"
  convolution_param {
    num_output: 96
    bias_term: true
    kernel_size: 3
    stride: 2
  }
}
layer {
  name: "activation_27"
  type: "ReLU"
  bottom: "conv2d_27"
  top: "conv2d_27"
}
layer {
  name: "activation_30"
  type: "ReLU"
  bottom: "conv2d_30"
  top: "conv2d_30"
}
layer {
  name: "max_pooling2d_3"
  type: "Pooling"
  bottom: "mixed2"
  top: "max_pooling2d_3"
  pooling_param {
    pool: MAX
    kernel_size: 3
    stride: 2
    pad: 0
  }
}
layer {
  name: "mixed3"
  type: "Concat"
  bottom: "conv2d_27"
  bottom: "conv2d_30"
  bottom: "max_pooling2d_3"
  top: "mixed3"
  concat_param {
    axis: 1
  }
}
layer {
  name: "conv2d_35"
  type: "PointwiseConvolution"
  bottom: "mixed3"
  top: "conv2d_35"
  convolution_param {
    num_output: 128
    bias_term: true
    pad: 0
    kernel_size: 1
    stride: 1
  }
}
layer {
  name: "activation_35"
  type: "ReLU"
  bottom: "conv2d_35"
  top: "conv2d_35"
}
layer {
  name: "conv2d_36"
  type: "Convolution"
  bottom: "conv2d_35"
  top: "conv2d_36"
  convolution_param {
    num_output: 128
    bias_term: true
    stride: 1
    pad_h: 3
    pad_w: 0
    kernel_h: 7
    kernel_w: 1
  }
}
layer {
  name: "activation_36"
  type: "ReLU"
  bottom: "conv2d_36"
  top: "conv2d_36"
}
layer {
  name: "conv2d_32"
  type: "PointwiseConvolution"
  bottom: "mixed3"
  top: "conv2d_32"
  convolution_param {
    num_output: 128
    bias_term: true
    pad: 0
    kernel_size: 1
    stride: 1
  }
}
layer {
  name: "conv2d_37"
  type: "Convolution"
  bottom: "conv2d_36"
  top: "conv2d_37"
  convolution_param {
    num_output: 128
    bias_term: true
    stride: 1
    pad_h: 0
    pad_w: 3
    kernel_h: 1
    kernel_w: 7
  }
}
layer {
  name: "activation_32"
  type: "ReLU"
  bottom: "conv2d_32"
  top: "conv2d_32"
}
layer {
  name: "activation_37"
  type: "ReLU"
  bottom: "conv2d_37"
  top: "conv2d_37"
}
layer {
  name: "conv2d_33"
  type: "Convolution"
  bottom: "conv2d_32"
  top: "conv2d_33"
  convolution_param {
    num_output: 128
    bias_term: true
    stride: 1
    pad_h: 0
    pad_w: 3
    kernel_h: 1
    kernel_w: 7
  }
}
layer {
  name: "conv2d_38"
  type: "Convolution"
  bottom: "conv2d_37"
  top: "conv2d_38"
  convolution_param {
    num_output: 128
    bias_term: true
    stride: 1
    pad_h: 3
    pad_w: 0
    kernel_h: 7
    kernel_w: 1
  }
}
layer {
  name: "activation_33"
  type: "ReLU"
  bottom: "conv2d_33"
  top: "conv2d_33"
}
layer {
  name: "activation_38"
  type: "ReLU"
  bottom: "conv2d_38"
  top: "conv2d_38"
}
layer {
  name: "average_pooling2d_4"
  type: "Pooling"
  bottom: "mixed3"
  top: "average_pooling2d_4"
  pooling_param {
    pool: AVE
    kernel_size: 3
    stride: 1
    pad: 1
  }
}
layer {
  name: "conv2d_31"
  type: "PointwiseConvolution"
  bottom: "mixed3"
  top: "conv2d_31"
  convolution_param {
    num_output: 192
    bias_term: true
    pad: 0
    kernel_size: 1
    stride: 1
  }
}
layer {
  name: "conv2d_34"
  type: "Convolution"
  bottom: "conv2d_33"
  top: "conv2d_34"
  convolution_param {
    num_output: 192
    bias_term: true
    stride: 1
    pad_h: 3
    pad_w: 0
    kernel_h: 7
    kernel_w: 1
  }
}
layer {
  name: "conv2d_39"
  type: "Convolution"
  bottom: "conv2d_38"
  top: "conv2d_39"
  convolution_param {
    num_output: 192
    bias_term: true
    stride: 1
    pad_h: 0
    pad_w: 3
    kernel_h: 1
    kernel_w: 7
  }
}
layer {
  name: "conv2d_40"
  type: "PointwiseConvolution"
  bottom: "average_pooling2d_4"
  top: "conv2d_40"
  convolution_param {
    num_output: 192
    bias_term: true
    pad: 0
    kernel_size: 1
    stride: 1
  }
}
layer {
  name: "activation_31"
  type: "ReLU"
  bottom: "conv2d_31"
  top: "conv2d_31"
}
layer {
  name: "activation_34"
  type: "ReLU"
  bottom: "conv2d_34"
  top: "conv2d_34"
}
layer {
  name: "activation_39"
  type: "ReLU"
  bottom: "conv2d_39"
  top: "conv2d_39"
}
layer {
  name: "activation_40"
  type: "ReLU"
  bottom: "conv2d_40"
  top: "conv2d_40"
}
layer {
  name: "mixed4"
  type: "Concat"
  bottom: "conv2d_31"
  bottom: "conv2d_34"
  bottom: "conv2d_39"
  bottom: "conv2d_40"
  top: "mixed4"
  concat_param {
    axis: 1
  }
}
layer {
  name: "conv2d_45"
  type: "PointwiseConvolution"
  bottom: "mixed4"
  top: "conv2d_45"
  convolution_param {
    num_output: 160
    bias_term: true
    pad: 0
    kernel_size: 1
    stride: 1
  }
}
layer {
  name: "activation_45"
  type: "ReLU"
  bottom: "conv2d_45"
  top: "conv2d_45"
}
layer {
  name: "conv2d_46"
  type: "Convolution"
  bottom: "conv2d_45"
  top: "conv2d_46"
  convolution_param {
    num_output: 160
    bias_term: true
    stride: 1
    pad_h: 3
    pad_w: 0
    kernel_h: 7
    kernel_w: 1
  }
}
layer {
  name: "activation_46"
  type: "ReLU"
  bottom: "conv2d_46"
  top: "conv2d_46"
}
layer {
  name: "conv2d_42"
  type: "PointwiseConvolution"
  bottom: "mixed4"
  top: "conv2d_42"
  convolution_param {
    num_output: 160
    bias_term: true
    pad: 0
    kernel_size: 1
    stride: 1
  }
}
layer {
  name: "conv2d_47"
  type: "Convolution"
  bottom: "conv2d_46"
  top: "conv2d_47"
  convolution_param {
    num_output: 160
    bias_term: true
    stride: 1
    pad_h: 0
    pad_w: 3
    kernel_h: 1
    kernel_w: 7
  }
}
layer {
  name: "activation_42"
  type: "ReLU"
  bottom: "conv2d_42"
  top: "conv2d_42"
}
layer {
  name: "activation_47"
  type: "ReLU"
  bottom: "conv2d_47"
  top: "conv2d_47"
}
layer {
  name: "conv2d_43"
  type: "Convolution"
  bottom: "conv2d_42"
  top: "conv2d_43"
  convolution_param {
    num_output: 160
    bias_term: true
    stride: 1
    pad_h: 0
    pad_w: 3
    kernel_h: 1
    kernel_w: 7
  }
}
layer {
  name: "conv2d_48"
  type: "Convolution"
  bottom: "conv2d_47"
  top: "conv2d_48"
  convolution_param {
    num_output: 160
    bias_term: true
    stride: 1
    pad_h: 3
    pad_w: 0
    kernel_h: 7
    kernel_w: 1
  }
}
layer {
  name: "activation_43"
  type: "ReLU"
  bottom: "conv2d_43"
  top: "conv2d_43"
}
layer {
  name: "activation_48"
  type: "ReLU"
  bottom: "conv2d_48"
  top: "conv2d_48"
}
layer {
  name: "average_pooling2d_5"
  type: "Pooling"
  bottom: "mixed4"
  top: "average_pooling2d_5"
  pooling_param {
    pool: AVE
    kernel_size: 3
    stride: 1
    pad: 1
  }
}
layer {
  name: "conv2d_41"
  type: "PointwiseConvolution"
  bottom: "mixed4"
  top: "conv2d_41"
  convolution_param {
    num_output: 192
    bias_term: true
    pad: 0
    kernel_size: 1
    stride: 1
  }
}
layer {
  name: "conv2d_44"
  type: "Convolution"
  bottom: "conv2d_43"
  top: "conv2d_44"
  convolution_param {
    num_output: 192
    bias_term: true
    stride: 1
    pad_h: 3
    pad_w: 0
    kernel_h: 7
    kernel_w: 1
  }
}
layer {
  name: "conv2d_49"
  type: "Convolution"
  bottom: "conv2d_48"
  top: "conv2d_49"
  convolution_param {
    num_output: 192
    bias_term: true
    stride: 1
    pad_h: 0
    pad_w: 3
    kernel_h: 1
    kernel_w: 7
  }
}
layer {
  name: "conv2d_50"
  type: "PointwiseConvolution"
  bottom: "average_pooling2d_5"
  top: "conv2d_50"
  convolution_param {
    num_output: 192
    bias_term: true
    pad: 0
    kernel_size: 1
    stride: 1
  }
}
layer {
  name: "activation_41"
  type: "ReLU"
  bottom: "conv2d_41"
  top: "conv2d_41"
}
layer {
  name: "activation_44"
  type: "ReLU"
  bottom: "conv2d_44"
  top: "conv2d_44"
}
layer {
  name: "activation_49"
  type: "ReLU"
  bottom: "conv2d_49"
  top: "conv2d_49"
}
layer {
  name: "activation_50"
  type: "ReLU"
  bottom: "conv2d_50"
  top: "conv2d_50"
}
layer {
  name: "mixed5"
  type: "Concat"
  bottom: "conv2d_41"
  bottom: "conv2d_44"
  bottom: "conv2d_49"
  bottom: "conv2d_50"
  top: "mixed5"
  concat_param {
    axis: 1
  }
}
layer {
  name: "conv2d_55"
  type: "PointwiseConvolution"
  bottom: "mixed5"
  top: "conv2d_55"
  convolution_param {
    num_output: 160
    bias_term: true
    pad: 0
    kernel_size: 1
    stride: 1
  }
}
layer {
  name: "activation_55"
  type: "ReLU"
  bottom: "conv2d_55"
  top: "conv2d_55"
}
layer {
  name: "conv2d_56"
  type: "Convolution"
  bottom: "conv2d_55"
  top: "conv2d_56"
  convolution_param {
    num_output: 160
    bias_term: true
    stride: 1
    pad_h: 3
    pad_w: 0
    kernel_h: 7
    kernel_w: 1
  }
}
layer {
  name: "activation_56"
  type: "ReLU"
  bottom: "conv2d_56"
  top: "conv2d_56"
}
layer {
  name: "conv2d_52"
  type: "PointwiseConvolution"
  bottom: "mixed5"
  top: "conv2d_52"
  convolution_param {
    num_output: 160
    bias_term: true
    pad: 0
    kernel_size: 1
    stride: 1
  }
}
layer {
  name: "conv2d_57"
  type: "Convolution"
  bottom: "conv2d_56"
  top: "conv2d_57"
  convolution_param {
    num_output: 160
    bias_term: true
    stride: 1
    pad_h: 0
    pad_w: 3
    kernel_h: 1
    kernel_w: 7
  }
}
layer {
  name: "activation_52"
  type: "ReLU"
  bottom: "conv2d_52"
  top: "conv2d_52"
}
layer {
  name: "activation_57"
  type: "ReLU"
  bottom: "conv2d_57"
  top: "conv2d_57"
}
layer {
  name: "conv2d_53"
  type: "Convolution"
  bottom: "conv2d_52"
  top: "conv2d_53"
  convolution_param {
    num_output: 160
    bias_term: true
    stride: 1
    pad_h: 0
    pad_w: 3
    kernel_h: 1
    kernel_w: 7
  }
}
layer {
  name: "conv2d_58"
  type: "Convolution"
  bottom: "conv2d_57"
  top: "conv2d_58"
  convolution_param {
    num_output: 160
    bias_term: true
    stride: 1
    pad_h: 3
    pad_w: 0
    kernel_h: 7
    kernel_w: 1
  }
}
layer {
  name: "activation_53"
  type: "ReLU"
  bottom: "conv2d_53"
  top: "conv2d_53"
}
layer {
  name: "activation_58"
  type: "ReLU"
  bottom: "conv2d_58"
  top: "conv2d_58"
}
layer {
  name: "average_pooling2d_6"
  type: "Pooling"
  bottom: "mixed5"
  top: "average_pooling2d_6"
  pooling_param {
    pool: AVE
    kernel_size: 3
    stride: 1
    pad: 1
  }
}
layer {
  name: "conv2d_51"
  type: "PointwiseConvolution"
  bottom: "mixed5"
  top: "conv2d_51"
  convolution_param {
    num_output: 192
    bias_term: true
    pad: 0
    kernel_size: 1
    stride: 1
  }
}
layer {
  name: "conv2d_54"
  type: "Convolution"
  bottom: "conv2d_53"
  top: "conv2d_54"
  convolution_param {
    num_output: 192
    bias_term: true
    stride: 1
    pad_h: 3
    pad_w: 0
    kernel_h: 7
    kernel_w: 1
  }
}
layer {
  name: "conv2d_59"
  type: "Convolution"
  bottom: "conv2d_58"
  top: "conv2d_59"
  convolution_param {
    num_output: 192
    bias_term: true
    stride: 1
    pad_h: 0
    pad_w: 3
    kernel_h: 1
    kernel_w: 7
  }
}
layer {
  name: "conv2d_60"
  type: "PointwiseConvolution"
  bottom: "average_pooling2d_6"
  top: "conv2d_60"
  convolution_param {
    num_output: 192
    bias_term: true
    pad: 0
    kernel_size: 1
    stride: 1
  }
}
layer {
  name: "activation_51"
  type: "ReLU"
  bottom: "conv2d_51"
  top: "conv2d_51"
}
layer {
  name: "activation_54"
  type: "ReLU"
  bottom: "conv2d_54"
  top: "conv2d_54"
}
layer {
  name: "activation_59"
  type: "ReLU"
  bottom: "conv2d_59"
  top: "conv2d_59"
}
layer {
  name: "activation_60"
  type: "ReLU"
  bottom: "conv2d_60"
  top: "conv2d_60"
}
layer {
  name: "mixed6"
  type: "Concat"
  bottom: "conv2d_51"
  bottom: "conv2d_54"
  bottom: "conv2d_59"
  bottom: "conv2d_60"
  top: "mixed6"
  concat_param {
    axis: 1
  }
}
layer {
  name: "conv2d_65"
  type: "PointwiseConvolution"
  bottom: "mixed6"
  top: "conv2d_65"
  convolution_param {
    num_output: 192
    bias_term: true
    pad: 0
    kernel_size: 1
    stride: 1
  }
}
layer {
  name: "activation_65"
  type: "ReLU"
  bottom: "conv2d_65"
  top: "conv2d_65"
}
layer {
  name: "conv2d_66"
  type: "Convolution"
  bottom: "conv2d_65"
  top: "conv2d_66"
  convolution_param {
    num_output: 192
    bias_term: true
    stride: 1
    pad_h: 3
    pad_w: 0
    kernel_h: 7
    kernel_w: 1
  }
}
layer {
  name: "activation_66"
  type: "ReLU"
  bottom: "conv2d_66"
  top: "conv2d_66"
}
layer {
  name: "conv2d_62"
  type: "PointwiseConvolution"
  bottom: "mixed6"
  top: "conv2d_62"
  convolution_param {
    num_output: 192
    bias_term: true
    pad: 0
    kernel_size: 1
    stride: 1
  }
}
layer {
  name: "conv2d_67"
  type: "Convolution"
  bottom: "conv2d_66"
  top: "conv2d_67"
  convolution_param {
    num_output: 192
    bias_term: true
    stride: 1
    pad_h: 0
    pad_w: 3
    kernel_h: 1
    kernel_w: 7
  }
}
layer {
  name: "activation_62"
  type: "ReLU"
  bottom: "conv2d_62"
  top: "conv2d_62"
}
layer {
  name: "activation_67"
  type: "ReLU"
  bottom: "conv2d_67"
  top: "conv2d_67"
}
layer {
  name: "conv2d_63"
  type: "Convolution"
  bottom: "conv2d_62"
  top: "conv2d_63"
  convolution_param {
    num_output: 192
    bias_term: true
    stride: 1
    pad_h: 0
    pad_w: 3
    kernel_h: 1
    kernel_w: 7
  }
}
layer {
  name: "conv2d_68"
  type: "Convolution"
  bottom: "conv2d_67"
  top: "conv2d_68"
  convolution_param {
    num_output: 192
    bias_term: true
    stride: 1
    pad_h: 3
    pad_w: 0
    kernel_h: 7
    kernel_w: 1
  }
}
layer {
  name: "activation_63"
  type: "ReLU"
  bottom: "conv2d_63"
  top: "conv2d_63"
}
layer {
  name: "activation_68"
  type: "ReLU"
  bottom: "conv2d_68"
  top: "conv2d_68"
}
layer {
  name: "average_pooling2d_7"
  type: "Pooling"
  bottom: "mixed6"
  top: "average_pooling2d_7"
  pooling_param {
    pool: AVE
    kernel_size: 3
    stride: 1
    pad: 1
  }
}
layer {
  name: "conv2d_61"
  type: "PointwiseConvolution"
  bottom: "mixed6"
  top: "conv2d_61"
  convolution_param {
    num_output: 192
    bias_term: true
    pad: 0
    kernel_size: 1
    stride: 1
  }
}
layer {
  name: "conv2d_64"
  type: "Convolution"
  bottom: "conv2d_63"
  top: "conv2d_64"
  convolution_param {
    num_output: 192
    bias_term: true
    stride: 1
    pad_h: 3
    pad_w: 0
    kernel_h: 7
    kernel_w: 1
  }
}
layer {
  name: "conv2d_69"
  type: "Convolution"
  bottom: "conv2d_68"
  top: "conv2d_69"
  convolution_param {
    num_output: 192
    bias_term: true
    stride: 1
    pad_h: 0
    pad_w: 3
    kernel_h: 1
    kernel_w: 7
  }
}
layer {
  name: "conv2d_70"
  type: "PointwiseConvolution"
  bottom: "average_pooling2d_7"
  top: "conv2d_70"
  convolution_param {
    num_output: 192
    bias_term: true
    pad: 0
    kernel_size: 1
    stride: 1
  }
}
layer {
  name: "activation_61"
  type: "ReLU"
  bottom: "conv2d_61"
  top: "conv2d_61"
}
layer {
  name: "activation_64"
  type: "ReLU"
  bottom: "conv2d_64"
  top: "conv2d_64"
}
layer {
  name: "activation_69"
  type: "ReLU"
  bottom: "conv2d_69"
  top: "conv2d_69"
}
layer {
  name: "activation_70"
  type: "ReLU"
  bottom: "conv2d_70"
  top: "conv2d_70"
}
layer {
  name: "mixed7"
  type: "Concat"
  bottom: "conv2d_61"
  bottom: "conv2d_64"
  bottom: "conv2d_69"
  bottom: "conv2d_70"
  top: "mixed7"
  concat_param {
    axis: 1
  }
}
layer {
  name: "conv11/dw"
  type: "DepthwiseConvolution"
  bottom: "mixed7"
  top: "conv11/dw"
  param {
    lr_mult: 1.0
    decay_mult: 1.0
  }
  param {
    lr_mult: 2.0
    decay_mult: 0.0
  }
  convolution_param {
    num_output: 768
    pad: 1
    kernel_size: 3
    group: 768
    weight_filler {
      type: "msra"
    }
    bias_filler {
      type: "constant"
      value: 0.0
    }
    engine: CAFFE
  }
}
layer {
  name: "conv11/dw/relu"
  type: "ReLU"
  bottom: "conv11/dw"
  top: "conv11/dw"
}
layer {
  name: "conv11"
  type: "PointwiseConvolution"
  bottom: "conv11/dw"
  top: "conv11"
  param {
    lr_mult: 1.0
    decay_mult: 1.0
  }
  param {
    lr_mult: 2.0
    decay_mult: 0.0
  }
  convolution_param {
    num_output: 512
    kernel_size: 1
    weight_filler {
      type: "msra"
    }
    bias_filler {
      type: "constant"
      value: 0.0
    }
  }
}
layer {
  name: "conv11/relu"
  type: "ReLU"
  bottom: "conv11"
  top: "conv11"
}
layer {
  name: "conv12/dw"
  type: "DepthwiseConvolution"
  bottom: "conv11"
  top: "conv12/dw"
  param {
    lr_mult: 1.0
    decay_mult: 1.0
  }
  param {
    lr_mult: 2.0
    decay_mult: 0.0
  }
  convolution_param {
    num_output: 512
    pad: 1
    kernel_size: 3
    group: 512
    stride: 2
    weight_filler {
      type: "msra"
    }
    bias_filler {
      type: "constant"
      value: 0.0
    }
    engine: CAFFE
  }
}
layer {
  name: "conv12/dw/relu"
  type: "ReLU"
  bottom: "conv12/dw"
  top: "conv12/dw"
}
layer {
  name: "conv12"
  type: "PointwiseConvolution"
  bottom: "conv12/dw"
  top: "conv12"
  param {
    lr_mult: 1.0
    decay_mult: 1.0
  }
  param {
    lr_mult: 2.0
    decay_mult: 0.0
  }
  convolution_param {
    num_output: 1024
    kernel_size: 1
    weight_filler {
      type: "msra"
    }
    bias_filler {
      type: "constant"
      value: 0.0
    }
  }
}
layer {
  name: "conv12/relu"
  type: "ReLU"
  bottom: "conv12"
  top: "conv12"
}
layer {
  name: "conv13/dw"
  type: "DepthwiseConvolution"
  bottom: "conv12"
  top: "conv13/dw"
  param {
    lr_mult: 1.0
    decay_mult: 1.0
  }
  param {
    lr_mult: 2.0
    decay_mult: 0.0
  }
  convolution_param {
    num_output: 1024
    pad: 1
    kernel_size: 3
    group: 1024
    weight_filler {
      type: "msra"
    }
    bias_filler {
      type: "constant"
      value: 0.0
    }
    engine: CAFFE
  }
}
layer {
  name: "conv13/dw/relu"
  type: "ReLU"
  bottom: "conv13/dw"
  top: "conv13/dw"
}
layer {
  name: "conv13"
  type: "PointwiseConvolution"
  bottom: "conv13/dw"
  top: "conv13"
  param {
    lr_mult: 1.0
    decay_mult: 1.0
  }
  param {
    lr_mult: 2.0
    decay_mult: 0.0
  }
  convolution_param {
    num_output: 1024
    kernel_size: 1
    weight_filler {
      type: "msra"
    }
    bias_filler {
      type: "constant"
      value: 0.0
    }
  }
}
layer {
  name: "conv13/relu"
  type: "ReLU"
  bottom: "conv13"
  top: "conv13"
}
layer {
  name: "conv14_1"
  type: "PointwiseConvolution"
  bottom: "conv13"
  top: "conv14_1"
  param {
    lr_mult: 1.0
    decay_mult: 1.0
  }
  param {
    lr_mult: 2.0
    decay_mult: 0.0
  }
  convolution_param {
    num_output: 256
    kernel_size: 1
    weight_filler {
      type: "msra"
    }
    bias_filler {
      type: "constant"
      value: 0.0
    }
  }
}
layer {
  name: "conv14_1/relu"
  type: "ReLU"
  bottom: "conv14_1"
  top: "conv14_1"
}
layer {
  name: "conv14_2"
  type: "Convolution"
  bottom: "conv14_1"
  top: "conv14_2"
  param {
    lr_mult: 1.0
    decay_mult: 1.0
  }
  param {
    lr_mult: 2.0
    decay_mult: 0.0
  }
  convolution_param {
    num_output: 512
    pad: 1
    kernel_size: 3
    stride: 2
    weight_filler {
      type: "msra"
    }
    bias_filler {
      type: "constant"
      value: 0.0
    }
  }
}
layer {
  name: "conv14_2/relu"
  type: "ReLU"
  bottom: "conv14_2"
  top: "conv14_2"
}
layer {
  name: "conv15_1"
  type: "PointwiseConvolution"
  bottom: "conv14_2"
  top: "conv15_1"
  param {
    lr_mult: 1.0
    decay_mult: 1.0
  }
  param {
    lr_mult: 2.0
    decay_mult: 0.0
  }
  convolution_param {
    num_output: 128
    kernel_size: 1
    weight_filler {
      type: "msra"
    }
    bias_filler {
      type: "constant"
      value: 0.0
    }
  }
}
layer {
  name: "conv15_1/relu"
  type: "ReLU"
  bottom: "conv15_1"
  top: "conv15_1"
}
layer {
  name: "conv15_2"
  type: "Convolution"
  bottom: "conv15_1"
  top: "conv15_2"
  param {
    lr_mult: 1.0
    decay_mult: 1.0
  }
  param {
    lr_mult: 2.0
    decay_mult: 0.0
  }
  convolution_param {
    num_output: 256
    pad: 1
    kernel_size: 3
    stride: 2
    weight_filler {
      type: "msra"
    }
    bias_filler {
      type: "constant"
      value: 0.0
    }
  }
}
layer {
  name: "conv15_2/relu"
  type: "ReLU"
  bottom: "conv15_2"
  top: "conv15_2"
}
layer {
  name: "conv16_1"
  type: "PointwiseConvolution"
  bottom: "conv15_2"
  top: "conv16_1"
  param {
    lr_mult: 1.0
    decay_mult: 1.0
  }
  param {
    lr_mult: 2.0
    decay_mult: 0.0
  }
  convolution_param {
    num_output: 128
    kernel_size: 1
    weight_filler {
      type: "msra"
    }
    bias_filler {
      type: "constant"
      value: 0.0
    }
  }
}
layer {
  name: "conv16_1/relu"
  type: "ReLU"
  bottom: "conv16_1"
  top: "conv16_1"
}
layer {
  name: "conv16_2"
  type: "Convolution"
  bottom: "conv16_1"
  top: "conv16_2"
  param {
    lr_mult: 1.0
    decay_mult: 1.0
  }
  param {
    lr_mult: 2.0
    decay_mult: 0.0
  }
  convolution_param {
    num_output: 256
    pad: 1
    kernel_size: 3
    stride: 2
    weight_filler {
      type: "msra"
    }
    bias_filler {
      type: "constant"
      value: 0.0
    }
  }
}
layer {
  name: "conv16_2/relu"
  type: "ReLU"
  bottom: "conv16_2"
  top: "conv16_2"
}
layer {
  name: "conv17_1"
  type: "PointwiseConvolution"
  bottom: "conv16_2"
  top: "conv17_1"
  param {
    lr_mult: 1.0
    decay_mult: 1.0
  }
  param {
    lr_mult: 2.0
    decay_mult: 0.0
  }
  convolution_param {
    num_output: 64
    kernel_size: 1
    weight_filler {
      type: "msra"
    }
    bias_filler {
      type: "constant"
      value: 0.0
    }
  }
}
layer {
  name: "conv17_1/relu"
  type: "ReLU"
  bottom: "conv17_1"
  top: "conv17_1"
}
layer {
  name: "conv17_2"
  type: "Convolution"
  bottom: "conv17_1"
  top: "conv17_2"
  param {
    lr_mult: 1.0
    decay_mult: 1.0
  }
  param {
    lr_mult: 2.0
    decay_mult: 0.0
  }
  convolution_param {
    num_output: 128
    pad: 1
    kernel_size: 3
    stride: 2
    weight_filler {
      type: "msra"
    }
    bias_filler {
      type: "constant"
      value: 0.0
    }
  }
}
layer {
  name: "conv17_2/relu"
  type: "ReLU"
  bottom: "conv17_2"
  top: "conv17_2"
}
layer {
  name: "conv11_mbox_loc"
  type: "PointwiseConvolution"
  bottom: "conv11"
  top: "conv11_mbox_loc"
  param {
    lr_mult: 1.0
    decay_mult: 1.0
  }
  param {
    lr_mult: 2.0
    decay_mult: 0.0
  }
  convolution_param {
    num_output: 12
    kernel_size: 1
    weight_filler {
      type: "msra"
    }
    bias_filler {
      type: "constant"
      value: 0.0
    }
  }
}
layer {
  name: "conv11_mbox_loc_perm"
  type: "Permute"
  bottom: "conv11_mbox_loc"
  top: "conv11_mbox_loc_perm"
  permute_param {
    order: 0
    order: 2
    order: 3
    order: 1
  }
}
layer {
  name: "conv11_mbox_loc_flat"
  type: "Flatten"
  bottom: "conv11_mbox_loc_perm"
  top: "conv11_mbox_loc_flat"
  flatten_param {
    axis: 1
  }
}
layer {
  name: "conv11_mbox_conf_samsung_eye_5"
  type: "PointwiseConvolution"
  bottom: "conv11"
  top: "conv11_mbox_conf_samsung_eye_5"
  param {
    lr_mult: 1.0
    decay_mult: 1.0
  }
  param {
    lr_mult: 2.0
    decay_mult: 0.0
  }
  convolution_param {
    num_output: 15
    kernel_size: 1
    weight_filler {
      type: "msra"
    }
    bias_filler {
      type: "constant"
      value: 0.0
    }
  }
}
layer {
  name: "conv11_mbox_conf_perm_5"
  type: "Permute"
  bottom: "conv11_mbox_conf_samsung_eye_5"
  top: "conv11_mbox_conf_perm_5"
  permute_param {
    order: 0
    order: 2
    order: 3
    order: 1
  }
}
layer {
  name: "conv11_mbox_conf_flat_5"
  type: "Flatten"
  bottom: "conv11_mbox_conf_perm_5"
  top: "conv11_mbox_conf_flat_5"
  flatten_param {
    axis: 1
  }
}
layer {
  name: "conv11_mbox_priorbox"
  type: "PriorBox"
  bottom: "conv11"
  bottom: "data"
  top: "conv11_mbox_priorbox"
  prior_box_param {
    min_size: 60.0
    aspect_ratio: 2.0
    flip: true
    clip: false
    variance: 0.10000000149
    variance: 0.10000000149
    variance: 0.20000000298
    variance: 0.20000000298
    offset: 0.5
  }
}
layer {
  name: "conv13_mbox_loc"
  type: "PointwiseConvolution"
  bottom: "conv13"
  top: "conv13_mbox_loc"
  param {
    lr_mult: 1.0
    decay_mult: 1.0
  }
  param {
    lr_mult: 2.0
    decay_mult: 0.0
  }
  convolution_param {
    num_output: 24
    kernel_size: 1
    weight_filler {
      type: "msra"
    }
    bias_filler {
      type: "constant"
      value: 0.0
    }
  }
}
layer {
  name: "conv13_mbox_loc_perm"
  type: "Permute"
  bottom: "conv13_mbox_loc"
  top: "conv13_mbox_loc_perm"
  permute_param {
    order: 0
    order: 2
    order: 3
    order: 1
  }
}
layer {
  name: "conv13_mbox_loc_flat"
  type: "Flatten"
  bottom: "conv13_mbox_loc_perm"
  top: "conv13_mbox_loc_flat"
  flatten_param {
    axis: 1
  }
}
layer {
  name: "conv13_mbox_conf_samsung_eye_5"
  type: "PointwiseConvolution"
  bottom: "conv13"
  top: "conv13_mbox_conf_samsung_eye_5"
  param {
    lr_mult: 1.0
    decay_mult: 1.0
  }
  param {
    lr_mult: 2.0
    decay_mult: 0.0
  }
  convolution_param {
    num_output: 30
    kernel_size: 1
    weight_filler {
      type: "msra"
    }
    bias_filler {
      type: "constant"
      value: 0.0
    }
  }
}
layer {
  name: "conv13_mbox_conf_perm_5"
  type: "Permute"
  bottom: "conv13_mbox_conf_samsung_eye_5"
  top: "conv13_mbox_conf_perm_5"
  permute_param {
    order: 0
    order: 2
    order: 3
    order: 1
  }
}
layer {
  name: "conv13_mbox_conf_flat_5"
  type: "Flatten"
  bottom: "conv13_mbox_conf_perm_5"
  top: "conv13_mbox_conf_flat_5"
  flatten_param {
    axis: 1
  }
}
layer {
  name: "conv13_mbox_priorbox"
  type: "PriorBox"
  bottom: "conv13"
  bottom: "data"
  top: "conv13_mbox_priorbox"
  prior_box_param {
    min_size: 105.0
    max_size: 150.0
    aspect_ratio: 2.0
    aspect_ratio: 3.0
    flip: true
    clip: false
    variance: 0.10000000149
    variance: 0.10000000149
    variance: 0.20000000298
    variance: 0.20000000298
    offset: 0.5
  }
}
layer {
  name: "conv14_2_mbox_loc"
  type: "PointwiseConvolution"
  bottom: "conv14_2"
  top: "conv14_2_mbox_loc"
  param {
    lr_mult: 1.0
    decay_mult: 1.0
  }
  param {
    lr_mult: 2.0
    decay_mult: 0.0
  }
  convolution_param {
    num_output: 24
    kernel_size: 1
    weight_filler {
      type: "msra"
    }
    bias_filler {
      type: "constant"
      value: 0.0
    }
  }
}
layer {
  name: "conv14_2_mbox_loc_perm"
  type: "Permute"
  bottom: "conv14_2_mbox_loc"
  top: "conv14_2_mbox_loc_perm"
  permute_param {
    order: 0
    order: 2
    order: 3
    order: 1
  }
}
layer {
  name: "conv14_2_mbox_loc_flat"
  type: "Flatten"
  bottom: "conv14_2_mbox_loc_perm"
  top: "conv14_2_mbox_loc_flat"
  flatten_param {
    axis: 1
  }
}
layer {
  name: "conv14_2_mbox_conf_samsung_eye_5"
  type: "PointwiseConvolution"
  bottom: "conv14_2"
  top: "conv14_2_mbox_conf_samsung_eye_5"
  param {
    lr_mult: 1.0
    decay_mult: 1.0
  }
  param {
    lr_mult: 2.0
    decay_mult: 0.0
  }
  convolution_param {
    num_output: 30
    kernel_size: 1
    weight_filler {
      type: "msra"
    }
    bias_filler {
      type: "constant"
      value: 0.0
    }
  }
}
layer {
  name: "conv14_2_mbox_conf_perm_5"
  type: "Permute"
  bottom: "conv14_2_mbox_conf_samsung_eye_5"
  top: "conv14_2_mbox_conf_perm_5"
  permute_param {
    order: 0
    order: 2
    order: 3
    order: 1
  }
}
layer {
  name: "conv14_2_mbox_conf_flat_5"
  type: "Flatten"
  bottom: "conv14_2_mbox_conf_perm_5"
  top: "conv14_2_mbox_conf_flat_5"
  flatten_param {
    axis: 1
  }
}
layer {
  name: "conv14_2_mbox_priorbox"
  type: "PriorBox"
  bottom: "conv14_2"
  bottom: "data"
  top: "conv14_2_mbox_priorbox"
  prior_box_param {
    min_size: 150.0
    max_size: 195.0
    aspect_ratio: 2.0
    aspect_ratio: 3.0
    flip: true
    clip: false
    variance: 0.10000000149
    variance: 0.10000000149
    variance: 0.20000000298
    variance: 0.20000000298
    offset: 0.5
  }
}
layer {
  name: "conv15_2_mbox_loc"
  type: "PointwiseConvolution"
  bottom: "conv15_2"
  top: "conv15_2_mbox_loc"
  param {
    lr_mult: 1.0
    decay_mult: 1.0
  }
  param {
    lr_mult: 2.0
    decay_mult: 0.0
  }
  convolution_param {
    num_output: 24
    kernel_size: 1
    weight_filler {
      type: "msra"
    }
    bias_filler {
      type: "constant"
      value: 0.0
    }
  }
}
layer {
  name: "conv15_2_mbox_loc_perm"
  type: "Permute"
  bottom: "conv15_2_mbox_loc"
  top: "conv15_2_mbox_loc_perm"
  permute_param {
    order: 0
    order: 2
    order: 3
    order: 1
  }
}
layer {
  name: "conv15_2_mbox_loc_flat"
  type: "Flatten"
  bottom: "conv15_2_mbox_loc_perm"
  top: "conv15_2_mbox_loc_flat"
  flatten_param {
    axis: 1
  }
}
layer {
  name: "conv15_2_mbox_conf_samsung_eye_5"
  type: "PointwiseConvolution"
  bottom: "conv15_2"
  top: "conv15_2_mbox_conf_samsung_eye_5"
  param {
    lr_mult: 1.0
    decay_mult: 1.0
  }
  param {
    lr_mult: 2.0
    decay_mult: 0.0
  }
  convolution_param {
    num_output: 30
    kernel_size: 1
    weight_filler {
      type: "msra"
    }
    bias_filler {
      type: "constant"
      value: 0.0
    }
  }
}
layer {
  name: "conv15_2_mbox_conf_perm_5"
  type: "Permute"
  bottom: "conv15_2_mbox_conf_samsung_eye_5"
  top: "conv15_2_mbox_conf_perm_5"
  permute_param {
    order: 0
    order: 2
    order: 3
    order: 1
  }
}
layer {
  name: "conv15_2_mbox_conf_flat_5"
  type: "Flatten"
  bottom: "conv15_2_mbox_conf_perm_5"
  top: "conv15_2_mbox_conf_flat_5"
  flatten_param {
    axis: 1
  }
}
layer {
  name: "conv15_2_mbox_priorbox"
  type: "PriorBox"
  bottom: "conv15_2"
  bottom: "data"
  top: "conv15_2_mbox_priorbox"
  prior_box_param {
    min_size: 195.0
    max_size: 240.0
    aspect_ratio: 2.0
    aspect_ratio: 3.0
    flip: true
    clip: false
    variance: 0.10000000149
    variance: 0.10000000149
    variance: 0.20000000298
    variance: 0.20000000298
    offset: 0.5
  }
}
layer {
  name: "conv16_2_mbox_loc"
  type: "PointwiseConvolution"
  bottom: "conv16_2"
  top: "conv16_2_mbox_loc"
  param {
    lr_mult: 1.0
    decay_mult: 1.0
  }
  param {
    lr_mult: 2.0
    decay_mult: 0.0
  }
  convolution_param {
    num_output: 24
    kernel_size: 1
    weight_filler {
      type: "msra"
    }
    bias_filler {
      type: "constant"
      value: 0.0
    }
  }
}
layer {
  name: "conv16_2_mbox_loc_perm"
  type: "Permute"
  bottom: "conv16_2_mbox_loc"
  top: "conv16_2_mbox_loc_perm"
  permute_param {
    order: 0
    order: 2
    order: 3
    order: 1
  }
}
layer {
  name: "conv16_2_mbox_loc_flat"
  type: "Flatten"
  bottom: "conv16_2_mbox_loc_perm"
  top: "conv16_2_mbox_loc_flat"
  flatten_param {
    axis: 1
  }
}
layer {
  name: "conv16_2_mbox_conf_samsung_eye_5"
  type: "PointwiseConvolution"
  bottom: "conv16_2"
  top: "conv16_2_mbox_conf_samsung_eye_5"
  param {
    lr_mult: 1.0
    decay_mult: 1.0
  }
  param {
    lr_mult: 2.0
    decay_mult: 0.0
  }
  convolution_param {
    num_output: 30
    kernel_size: 1
    weight_filler {
      type: "msra"
    }
    bias_filler {
      type: "constant"
      value: 0.0
    }
  }
}
layer {
  name: "conv16_2_mbox_conf_perm_5"
  type: "Permute"
  bottom: "conv16_2_mbox_conf_samsung_eye_5"
  top: "conv16_2_mbox_conf_perm_5"
  permute_param {
    order: 0
    order: 2
    order: 3
    order: 1
  }
}
layer {
  name: "conv16_2_mbox_conf_flat_5"
  type: "Flatten"
  bottom: "conv16_2_mbox_conf_perm_5"
  top: "conv16_2_mbox_conf_flat_5"
  flatten_param {
    axis: 1
  }
}
layer {
  name: "conv16_2_mbox_priorbox"
  type: "PriorBox"
  bottom: "conv16_2"
  bottom: "data"
  top: "conv16_2_mbox_priorbox"
  prior_box_param {
    min_size: 240.0
    max_size: 285.0
    aspect_ratio: 2.0
    aspect_ratio: 3.0
    flip: true
    clip: false
    variance: 0.10000000149
    variance: 0.10000000149
    variance: 0.20000000298
    variance: 0.20000000298
    offset: 0.5
  }
}
layer {
  name: "conv17_2_mbox_loc"
  type: "PointwiseConvolution"
  bottom: "conv17_2"
  top: "conv17_2_mbox_loc"
  param {
    lr_mult: 1.0
    decay_mult: 1.0
  }
  param {
    lr_mult: 2.0
    decay_mult: 0.0
  }
  convolution_param {
    num_output: 24
    kernel_size: 1
    weight_filler {
      type: "msra"
    }
    bias_filler {
      type: "constant"
      value: 0.0
    }
  }
}
layer {
  name: "conv17_2_mbox_loc_perm"
  type: "Permute"
  bottom: "conv17_2_mbox_loc"
  top: "conv17_2_mbox_loc_perm"
  permute_param {
    order: 0
    order: 2
    order: 3
    order: 1
  }
}
layer {
  name: "conv17_2_mbox_loc_flat"
  type: "Flatten"
  bottom: "conv17_2_mbox_loc_perm"
  top: "conv17_2_mbox_loc_flat"
  flatten_param {
    axis: 1
  }
}
layer {
  name: "conv17_2_mbox_conf_samsung_eye_5"
  type: "PointwiseConvolution"
  bottom: "conv17_2"
  top: "conv17_2_mbox_conf_samsung_eye_5"
  param {
    lr_mult: 1.0
    decay_mult: 1.0
  }
  param {
    lr_mult: 2.0
    decay_mult: 0.0
  }
  convolution_param {
    num_output: 30
    kernel_size: 1
    weight_filler {
      type: "msra"
    }
    bias_filler {
      type: "constant"
      value: 0.0
    }
  }
}
layer {
  name: "conv17_2_mbox_conf_perm_5"
  type: "Permute"
  bottom: "conv17_2_mbox_conf_samsung_eye_5"
  top: "conv17_2_mbox_conf_perm_5"
  permute_param {
    order: 0
    order: 2
    order: 3
    order: 1
  }
}
layer {
  name: "conv17_2_mbox_conf_flat_5"
  type: "Flatten"
  bottom: "conv17_2_mbox_conf_perm_5"
  top: "conv17_2_mbox_conf_flat_5"
  flatten_param {
    axis: 1
  }
}
layer {
  name: "conv17_2_mbox_priorbox"
  type: "PriorBox"
  bottom: "conv17_2"
  bottom: "data"
  top: "conv17_2_mbox_priorbox"
  prior_box_param {
    min_size: 285.0
    max_size: 300.0
    aspect_ratio: 2.0
    aspect_ratio: 3.0
    flip: true
    clip: false
    variance: 0.10000000149
    variance: 0.10000000149
    variance: 0.20000000298
    variance: 0.20000000298
    offset: 0.5
  }
}
layer {
  name: "conv12_mbox_loc"
  type: "PointwiseConvolution"
  bottom: "conv12"
  top: "conv12_mbox_loc"
  param {
    lr_mult: 1.0
    decay_mult: 1.0
  }
  param {
    lr_mult: 2.0
    decay_mult: 0.0
  }
  convolution_param {
    num_output: 40
    kernel_size: 1
    weight_filler {
      type: "msra"
    }
    bias_filler {
      type: "constant"
      value: 0.0
    }
  }
}
layer {
  name: "conv12_mbox_loc_perm"
  type: "Permute"
  bottom: "conv12_mbox_loc"
  top: "conv12_mbox_loc_perm"
  permute_param {
    order: 0
    order: 2
    order: 3
    order: 1
  }
}
layer {
  name: "conv12_mbox_loc_flat"
  type: "Flatten"
  bottom: "conv12_mbox_loc_perm"
  top: "conv12_mbox_loc_flat"
  flatten_param {
    axis: 1
  }
}
layer {
  name: "conv12_mbox_conf_samsung_eye_5"
  type: "PointwiseConvolution"
  bottom: "conv12"
  top: "conv12_mbox_conf_samsung_eye_5"
  param {
    lr_mult: 1.0
    decay_mult: 1.0
  }
  param {
    lr_mult: 2.0
    decay_mult: 0.0
  }
  convolution_param {
    num_output: 50
    kernel_size: 1
    weight_filler {
      type: "msra"
    }
    bias_filler {
      type: "constant"
      value: 0.0
    }
  }
}
layer {
  name: "conv12_mbox_conf_perm_5"
  type: "Permute"
  bottom: "conv12_mbox_conf_samsung_eye_5"
  top: "conv12_mbox_conf_perm_5"
  permute_param {
    order: 0
    order: 2
    order: 3
    order: 1
  }
}
layer {
  name: "conv12_mbox_conf_flat_5"
  type: "Flatten"
  bottom: "conv12_mbox_conf_perm_5"
  top: "conv12_mbox_conf_flat_5"
  flatten_param {
    axis: 1
  }
}
layer {
  name: "conv12_mbox_priorbox"
  type: "PriorBox"
  bottom: "conv12"
  bottom: "data"
  top: "conv12_mbox_priorbox"
  prior_box_param {
    min_size: 33.0
    max_size: 45.0
    aspect_ratio: 2.0
    aspect_ratio: 3.0
    aspect_ratio: 5.0
    aspect_ratio: 7.0
    flip: true
    clip: false
    variance: 0.10000000149
    variance: 0.10000000149
    variance: 0.20000000298
    variance: 0.20000000298
    offset: 0.5
  }
}
layer {
  name: "mbox_loc_new"
  type: "Concat"
  bottom: "conv11_mbox_loc_flat"
  bottom: "conv12_mbox_loc_flat"
  bottom: "conv13_mbox_loc_flat"
  bottom: "conv14_2_mbox_loc_flat"
  bottom: "conv15_2_mbox_loc_flat"
  bottom: "conv16_2_mbox_loc_flat"
  bottom: "conv17_2_mbox_loc_flat"
  top: "mbox_loc_new"
  concat_param {
    axis: 1
  }
}
layer {
  name: "mbox_conf_5_new"
  type: "Concat"
  bottom: "conv11_mbox_conf_flat_5"
  bottom: "conv12_mbox_conf_flat_5"
  bottom: "conv13_mbox_conf_flat_5"
  bottom: "conv14_2_mbox_conf_flat_5"
  bottom: "conv15_2_mbox_conf_flat_5"
  bottom: "conv16_2_mbox_conf_flat_5"
  bottom: "conv17_2_mbox_conf_flat_5"
  top: "mbox_conf_5_new"
  concat_param {
    axis: 1
  }
}
layer {
  name: "mbox_priorbox_new"
  type: "Concat"
  bottom: "conv11_mbox_priorbox"
  bottom: "conv12_mbox_priorbox"
  bottom: "conv13_mbox_priorbox"
  bottom: "conv14_2_mbox_priorbox"
  bottom: "conv15_2_mbox_priorbox"
  bottom: "conv16_2_mbox_priorbox"
  bottom: "conv17_2_mbox_priorbox"
  top: "mbox_priorbox_new"
  concat_param {
    axis: 2
  }
}
layer {
  name: "mbox_conf_reshape_5"
  type: "Reshape"
  bottom: "mbox_conf_5_new"
  top: "mbox_conf_reshape_5"
  reshape_param {
    shape {
      dim: 0
      dim: -1
      dim: 5
    }
  }
}
layer {
  name: "mbox_conf_softmax_5"
  type: "Softmax"
  bottom: "mbox_conf_reshape_5"
  top: "mbox_conf_softmax_5"
  softmax_param {
    axis: 2
  }
}
layer {
  name: "mbox_conf_flatten_5"
  type: "Flatten"
  bottom: "mbox_conf_softmax_5"
  top: "mbox_conf_flatten_5"
  flatten_param {
    axis: 1
  }
}
layer {
  name: "detection_out"
  type: "DetectionOutput"
  bottom: "mbox_loc_new"
  bottom: "mbox_conf_flatten_5"
  bottom: "mbox_priorbox_new"
  top: "detection_out"
  include {
    phase: TEST
  }
  detection_output_param {
    num_classes: 5
    share_location: true
    background_label_id: 0
    nms_param {
      nms_threshold: 0.449999988079
      top_k: 100
    }
    code_type: CENTER_SIZE
    keep_top_k: 100
    confidence_threshold: 0.300000011921
  }
}
