name: "MOBILENET/Vizinsight"
layer {
  name: "data"
  type: "Input"
  top: "data"
  input_param {
    shape {
      dim: 1
      dim: 3
      dim: 192
      dim: 192
    }
  }
  
}
layer {
  name: "conv1"
  type: "Convolution"
  bottom: "data"
  top: "conv1"
  param {
    lr_mult: 1.0
    decay_mult: 1.0
  }
  convolution_param {
    num_output: 28
    bias_term: true
    pad: 1
    kernel_size: 3
    stride: 2
    weight_filler {
      type: "msra"
    }
  }
  
}
layer {
  name: "relu1"
  type: "ReLU"
  bottom: "conv1"
  top: "conv1"
  
}
layer {
  name: "conv2_1/dw"
  type: "DepthwiseConvolution"
  bottom: "conv1"
  top: "conv2_1/dw"
  param {
    lr_mult: 1.0
    decay_mult: 1.0
  }
  convolution_param {
    num_output: 28
    bias_term: true
    pad: 1
    kernel_size: 3
    group: 28
    stride: 1
    weight_filler {
      type: "msra"
    }
  }
  
}
layer {
  name: "relu2_1/dw"
  type: "ReLU"
  bottom: "conv2_1/dw"
  top: "conv2_1/dw"
  
}
layer {
  name: "conv2_1/sep"
  type: "PointwiseConvolution"
  bottom: "conv2_1/dw"
  top: "conv2_1/sep"
  param {
    lr_mult: 1.0
    decay_mult: 1.0
  }
  convolution_param {
    num_output: 58
    bias_term: true
    pad: 0
    kernel_size: 1
    stride: 1
    weight_filler {
      type: "msra"
    }
  }
  
}
layer {
  name: "relu2_1/sep"
  type: "ReLU"
  bottom: "conv2_1/sep"
  top: "conv2_1/sep"
  
}
layer {
  name: "conv2_2/dw"
  type: "DepthwiseConvolution"
  bottom: "conv2_1/sep"
  top: "conv2_2/dw"
  param {
    lr_mult: 1.0
    decay_mult: 1.0
  }
  convolution_param {
    num_output: 58
    bias_term: true
    pad: 1
    kernel_size: 3
    group: 58
    stride: 2
    weight_filler {
      type: "msra"
    }
  }
  
}
layer {
  name: "relu2_2/dw"
  type: "ReLU"
  bottom: "conv2_2/dw"
  top: "conv2_2/dw"
  
}
layer {
  name: "conv2_2/sep"
  type: "PointwiseConvolution"
  bottom: "conv2_2/dw"
  top: "conv2_2/sep"
  param {
    lr_mult: 1.0
    decay_mult: 1.0
  }
  convolution_param {
    num_output: 58
    bias_term: true
    pad: 0
    kernel_size: 1
    stride: 1
    weight_filler {
      type: "msra"
    }
  }
  
}
layer {
  name: "relu2_2/sep"
  type: "ReLU"
  bottom: "conv2_2/sep"
  top: "conv2_2/sep"
  
}
layer {
  name: "conv2_3/dw"
  type: "DepthwiseConvolution"
  bottom: "conv2_2/sep"
  top: "conv2_3/dw"
  param {
    lr_mult: 1.0
    decay_mult: 1.0
  }
  convolution_param {
    num_output: 58
    bias_term: true
    pad: 1
    kernel_size: 3
    group: 58
    stride: 1
    weight_filler {
      type: "msra"
    }
  }
  
}
layer {
  name: "relu2_3/dw"
  type: "ReLU"
  bottom: "conv2_3/dw"
  top: "conv2_3/dw"
  
}
layer {
  name: "conv2_3/sep"
  type: "PointwiseConvolution"
  bottom: "conv2_3/dw"
  top: "conv2_3/sep"
  param {
    lr_mult: 1.0
    decay_mult: 1.0
  }
  convolution_param {
    num_output: 58
    bias_term: true
    pad: 0
    kernel_size: 1
    stride: 1
    weight_filler {
      type: "msra"
    }
  }
  
}
layer {
  name: "relu2_3/sep"
  type: "ReLU"
  bottom: "conv2_3/sep"
  top: "conv2_3/sep"
  
}
layer {
  name: "conv2_4/dw"
  type: "DepthwiseConvolution"
  bottom: "conv2_3/sep"
  top: "conv2_4/dw"
  param {
    lr_mult: 1.0
    decay_mult: 1.0
  }
  convolution_param {
    num_output: 58
    bias_term: true
    pad: 1
    kernel_size: 3
    group: 58
    stride: 1
    weight_filler {
      type: "msra"
    }
  }
  
}
layer {
  name: "relu2_4/dw"
  type: "ReLU"
  bottom: "conv2_4/dw"
  top: "conv2_4/dw"
  
}
layer {
  name: "conv2_4/sep"
  type: "PointwiseConvolution"
  bottom: "conv2_4/dw"
  top: "conv2_4/sep"
  param {
    lr_mult: 1.0
    decay_mult: 1.0
  }
  convolution_param {
    num_output: 127
    bias_term: true
    pad: 0
    kernel_size: 1
    stride: 1
    weight_filler {
      type: "msra"
    }
  }
  
}
layer {
  name: "relu2_4/sep"
  type: "ReLU"
  bottom: "conv2_4/sep"
  top: "conv2_4/sep"
  
}
layer {
  name: "conv3_1/dw"
  type: "DepthwiseConvolution"
  bottom: "conv2_4/sep"
  top: "conv3_1/dw"
  param {
    lr_mult: 1.0
    decay_mult: 1.0
  }
  convolution_param {
    num_output: 127
    bias_term: true
    pad: 1
    kernel_size: 3
    group: 127
    stride: 1
    weight_filler {
      type: "msra"
    }
  }
  
}
layer {
  name: "relu3_1/dw"
  type: "ReLU"
  bottom: "conv3_1/dw"
  top: "conv3_1/dw"
  
}
layer {
  name: "conv3_1/sep"
  type: "PointwiseConvolution"
  bottom: "conv3_1/dw"
  top: "conv3_1/sep"
  param {
    lr_mult: 1.0
    decay_mult: 1.0
  }
  convolution_param {
    num_output: 122
    bias_term: true
    pad: 0
    kernel_size: 1
    stride: 1
    weight_filler {
      type: "msra"
    }
  }
  
}
layer {
  name: "relu3_1/sep"
  type: "ReLU"
  bottom: "conv3_1/sep"
  top: "conv3_1/sep"
  
}
layer {
  name: "conv3_2/dw"
  type: "DepthwiseConvolution"
  bottom: "conv3_1/sep"
  top: "conv3_2/dw"
  param {
    lr_mult: 1.0
    decay_mult: 1.0
  }
  convolution_param {
    num_output: 122
    bias_term: true
    pad: 1
    kernel_size: 3
    group: 122
    stride: 2
    weight_filler {
      type: "msra"
    }
  }
  
}
layer {
  name: "relu3_2/dw"
  type: "ReLU"
  bottom: "conv3_2/dw"
  top: "conv3_2/dw"
  
}
layer {
  name: "conv3_2/sep"
  type: "PointwiseConvolution"
  bottom: "conv3_2/dw"
  top: "conv3_2/sep"
  param {
    lr_mult: 1.0
    decay_mult: 1.0
  }
  convolution_param {
    num_output: 122
    bias_term: true
    pad: 0
    kernel_size: 1
    stride: 1
    weight_filler {
      type: "msra"
    }
  }
  
}
layer {
  name: "relu3_2/sep"
  type: "ReLU"
  bottom: "conv3_2/sep"
  top: "conv3_2/sep"
  
}
layer {
  name: "conv3_3/dw"
  type: "DepthwiseConvolution"
  bottom: "conv3_2/sep"
  top: "conv3_3/dw"
  param {
    lr_mult: 1.0
    decay_mult: 1.0
  }
  convolution_param {
    num_output: 122
    bias_term: true
    pad: 1
    kernel_size: 3
    group: 122
    stride: 1
    weight_filler {
      type: "msra"
    }
  }
  
}
layer {
  name: "relu3_3/dw"
  type: "ReLU"
  bottom: "conv3_3/dw"
  top: "conv3_3/dw"
  
}
layer {
  name: "conv3_3/sep"
  type: "PointwiseConvolution"
  bottom: "conv3_3/dw"
  top: "conv3_3/sep"
  param {
    lr_mult: 1.0
    decay_mult: 1.0
  }
  convolution_param {
    num_output: 122
    bias_term: true
    pad: 0
    kernel_size: 1
    stride: 1
    weight_filler {
      type: "msra"
    }
  }
  
}
layer {
  name: "relu3_3/sep"
  type: "ReLU"
  bottom: "conv3_3/sep"
  top: "conv3_3/sep"
  
}
layer {
  name: "conv3_4/dw"
  type: "DepthwiseConvolution"
  bottom: "conv3_3/sep"
  top: "conv3_4/dw"
  param {
    lr_mult: 1.0
    decay_mult: 1.0
  }
  convolution_param {
    num_output: 122
    bias_term: true
    pad: 1
    kernel_size: 3
    group: 122
    stride: 1
    weight_filler {
      type: "msra"
    }
  }
  
}
layer {
  name: "relu3_4/dw"
  type: "ReLU"
  bottom: "conv3_4/dw"
  top: "conv3_4/dw"
  
}
layer {
  name: "conv3_4/sep"
  type: "PointwiseConvolution"
  bottom: "conv3_4/dw"
  top: "conv3_4/sep"
  param {
    lr_mult: 1.0
    decay_mult: 1.0
  }
  convolution_param {
    num_output: 241
    bias_term: true
    pad: 0
    kernel_size: 1
    stride: 1
    weight_filler {
      type: "msra"
    }
  }
  
}
layer {
  name: "relu3_4/sep"
  type: "ReLU"
  bottom: "conv3_4/sep"
  top: "conv3_4/sep"
  
}
layer {
  name: "conv4_1/dw"
  type: "DepthwiseConvolution"
  bottom: "conv3_4/sep"
  top: "conv4_1/dw"
  param {
    lr_mult: 1.0
    decay_mult: 1.0
  }
  convolution_param {
    num_output: 241
    bias_term: true
    pad: 1
    kernel_size: 3
    group: 241
    stride: 1
    weight_filler {
      type: "msra"
    }
  }
  
}
layer {
  name: "relu4_1/dw"
  type: "ReLU"
  bottom: "conv4_1/dw"
  top: "conv4_1/dw"
  
}
layer {
  name: "conv4_1/sep"
  type: "PointwiseConvolution"
  bottom: "conv4_1/dw"
  top: "conv4_1/sep"
  param {
    lr_mult: 1.0
    decay_mult: 1.0
  }
  convolution_param {
    num_output: 239
    bias_term: true
    pad: 0
    kernel_size: 1
    stride: 1
    weight_filler {
      type: "msra"
    }
  }
  
}
layer {
  name: "relu4_1/sep"
  type: "ReLU"
  bottom: "conv4_1/sep"
  top: "conv4_1/sep"
  
}
layer {
  name: "conv4_2/dw"
  type: "DepthwiseConvolution"
  bottom: "conv4_1/sep"
  top: "conv4_2/dw"
  param {
    lr_mult: 1.0
    decay_mult: 1.0
  }
  convolution_param {
    num_output: 239
    bias_term: true
    pad: 1
    kernel_size: 3
    group: 239
    stride: 2
    weight_filler {
      type: "msra"
    }
  }
  
}
layer {
  name: "relu4_2/dw"
  type: "ReLU"
  bottom: "conv4_2/dw"
  top: "conv4_2/dw"
  
}
layer {
  name: "conv4_2/sep"
  type: "PointwiseConvolution"
  bottom: "conv4_2/dw"
  top: "conv4_2/sep"
  param {
    lr_mult: 1.0
    decay_mult: 1.0
  }
  convolution_param {
    num_output: 239
    bias_term: true
    pad: 0
    kernel_size: 1
    stride: 1
    weight_filler {
      type: "msra"
    }
  }
  
}
layer {
  name: "relu4_2/sep"
  type: "ReLU"
  bottom: "conv4_2/sep"
  top: "conv4_2/sep"
  
}
layer {
  name: "conv4_3/dw"
  type: "DepthwiseConvolution"
  bottom: "conv4_2/sep"
  top: "conv4_3/dw"
  param {
    lr_mult: 1.0
    decay_mult: 1.0
  }
  convolution_param {
    num_output: 239
    bias_term: true
    pad: 1
    kernel_size: 3
    group: 239
    stride: 1
    weight_filler {
      type: "msra"
    }
  }
  
}
layer {
  name: "relu4_3/dw"
  type: "ReLU"
  bottom: "conv4_3/dw"
  top: "conv4_3/dw"
  
}
layer {
  name: "conv4_3/sep"
  type: "PointwiseConvolution"
  bottom: "conv4_3/dw"
  top: "conv4_3/sep"
  param {
    lr_mult: 1.0
    decay_mult: 1.0
  }
  convolution_param {
    num_output: 239
    bias_term: true
    pad: 0
    kernel_size: 1
    stride: 1
    weight_filler {
      type: "msra"
    }
  }
  
}
layer {
  name: "relu4_3/sep"
  type: "ReLU"
  bottom: "conv4_3/sep"
  top: "conv4_3/sep"
  
}
layer {
  name: "conv4_4/dw"
  type: "DepthwiseConvolution"
  bottom: "conv4_3/sep"
  top: "conv4_4/dw"
  param {
    lr_mult: 1.0
    decay_mult: 1.0
  }
  convolution_param {
    num_output: 239
    bias_term: true
    pad: 1
    kernel_size: 3
    group: 239
    stride: 1
    weight_filler {
      type: "msra"
    }
  }
  
}
layer {
  name: "relu4_4/dw"
  type: "ReLU"
  bottom: "conv4_4/dw"
  top: "conv4_4/dw"
  
}
layer {
  name: "conv4_4/sep"
  type: "PointwiseConvolution"
  bottom: "conv4_4/dw"
  top: "conv4_4/sep"
  param {
    lr_mult: 1.0
    decay_mult: 1.0
  }
  convolution_param {
    num_output: 239
    bias_term: true
    pad: 0
    kernel_size: 1
    stride: 1
    weight_filler {
      type: "msra"
    }
  }
  
}
layer {
  name: "relu4_4/sep"
  type: "ReLU"
  bottom: "conv4_4/sep"
  top: "conv4_4/sep"
  
}
layer {
  name: "conv4_5/dw"
  type: "DepthwiseConvolution"
  bottom: "conv4_4/sep"
  top: "conv4_5/dw"
  param {
    lr_mult: 1.0
    decay_mult: 1.0
  }
  convolution_param {
    num_output: 239
    bias_term: true
    pad: 1
    kernel_size: 3
    group: 239
    stride: 1
    weight_filler {
      type: "msra"
    }
  }
  
}
layer {
  name: "relu4_5/dw"
  type: "ReLU"
  bottom: "conv4_5/dw"
  top: "conv4_5/dw"
  
}
layer {
  name: "conv4_5/sep"
  type: "PointwiseConvolution"
  bottom: "conv4_5/dw"
  top: "conv4_5/sep"
  param {
    lr_mult: 1.0
    decay_mult: 1.0
  }
  convolution_param {
    num_output: 239
    bias_term: true
    pad: 0
    kernel_size: 1
    stride: 1
    weight_filler {
      type: "msra"
    }
  }
  
}
layer {
  name: "relu4_5/sep"
  type: "ReLU"
  bottom: "conv4_5/sep"
  top: "conv4_5/sep"
  
}
layer {
  name: "conv4_6/dw"
  type: "DepthwiseConvolution"
  bottom: "conv4_5/sep"
  top: "conv4_6/dw"
  param {
    lr_mult: 1.0
    decay_mult: 1.0
  }
  convolution_param {
    num_output: 239
    bias_term: true
    pad: 1
    kernel_size: 3
    group: 239
    stride: 1
    weight_filler {
      type: "msra"
    }
  }
  
}
layer {
  name: "relu4_6/dw"
  type: "ReLU"
  bottom: "conv4_6/dw"
  top: "conv4_6/dw"
  
}
layer {
  name: "conv4_6/sep"
  type: "PointwiseConvolution"
  bottom: "conv4_6/dw"
  top: "conv4_6/sep"
  param {
    lr_mult: 1.0
    decay_mult: 1.0
  }
  convolution_param {
    num_output: 465
    bias_term: true
    pad: 0
    kernel_size: 1
    stride: 1
    weight_filler {
      type: "msra"
    }
  }
  
}
layer {
  name: "relu4_6/sep"
  type: "ReLU"
  bottom: "conv4_6/sep"
  top: "conv4_6/sep"
  
}
layer {
  name: "conv5_1/dw"
  type: "DepthwiseConvolution"
  bottom: "conv4_6/sep"
  top: "conv5_1/dw"
  param {
    lr_mult: 1.0
    decay_mult: 1.0
  }
  convolution_param {
    num_output: 465
    bias_term: true
    pad: 1
    kernel_size: 3
    group: 465
    stride: 1
    weight_filler {
      type: "msra"
    }
  }
  
}
layer {
  name: "relu5_1/dw"
  type: "ReLU"
  bottom: "conv5_1/dw"
  top: "conv5_1/dw"
  
}
layer {
  name: "conv5_1/sep"
  type: "PointwiseConvolution"
  bottom: "conv5_1/dw"
  top: "conv5_1/sep"
  param {
    lr_mult: 1.0
    decay_mult: 1.0
  }
  convolution_param {
    num_output: 467
    bias_term: true
    pad: 0
    kernel_size: 1
    stride: 1
    weight_filler {
      type: "msra"
    }
  }
  
}
layer {
  name: "relu5_1/sep"
  type: "ReLU"
  bottom: "conv5_1/sep"
  top: "conv5_1/sep"
  
}
layer {
  name: "conv5_2/dw"
  type: "DepthwiseConvolution"
  bottom: "conv5_1/sep"
  top: "conv5_2/dw"
  param {
    lr_mult: 1.0
    decay_mult: 1.0
  }
  convolution_param {
    num_output: 467
    bias_term: true
    pad: 1
    kernel_size: 3
    group: 467
    stride: 1
    weight_filler {
      type: "msra"
    }
  }
  
}
layer {
  name: "relu5_2/dw"
  type: "ReLU"
  bottom: "conv5_2/dw"
  top: "conv5_2/dw"
  
}
layer {
  name: "conv5_2/sep"
  type: "PointwiseConvolution"
  bottom: "conv5_2/dw"
  top: "conv5_2/sep"
  param {
    lr_mult: 1.0
    decay_mult: 1.0
  }
  convolution_param {
    num_output: 444
    bias_term: true
    pad: 0
    kernel_size: 1
    stride: 1
    weight_filler {
      type: "msra"
    }
  }
  
}
layer {
  name: "relu5_2/sep"
  type: "ReLU"
  bottom: "conv5_2/sep"
  top: "conv5_2/sep"
  
}
layer {
  name: "conv5_3/dw"
  type: "DepthwiseConvolution"
  bottom: "conv5_2/sep"
  top: "conv5_3/dw"
  param {
    lr_mult: 1.0
    decay_mult: 1.0
  }
  convolution_param {
    num_output: 444
    bias_term: true
    pad: 1
    kernel_size: 3
    group: 444
    stride: 1
    weight_filler {
      type: "msra"
    }
  }
  
}
layer {
  name: "relu5_3/dw"
  type: "ReLU"
  bottom: "conv5_3/dw"
  top: "conv5_3/dw"
  
}
layer {
  name: "conv5_3/sep"
  type: "PointwiseConvolution"
  bottom: "conv5_3/dw"
  top: "conv5_3/sep"
  param {
    lr_mult: 1.0
    decay_mult: 1.0
  }
  convolution_param {
    num_output: 435
    bias_term: true
    pad: 0
    kernel_size: 1
    stride: 1
    weight_filler {
      type: "msra"
    }
  }
  
}
layer {
  name: "relu5_3/sep"
  type: "ReLU"
  bottom: "conv5_3/sep"
  top: "conv5_3/sep"
  
}
layer {
  name: "conv5_4/dw"
  type: "DepthwiseConvolution"
  bottom: "conv5_3/sep"
  top: "conv5_4/dw"
  param {
    lr_mult: 1.0
    decay_mult: 1.0
  }
  convolution_param {
    num_output: 435
    bias_term: true
    pad: 1
    kernel_size: 3
    group: 435
    stride: 1
    weight_filler {
      type: "msra"
    }
  }
  
}
layer {
  name: "relu5_4/dw"
  type: "ReLU"
  bottom: "conv5_4/dw"
  top: "conv5_4/dw"
  
}
layer {
  name: "conv5_4/sep"
  type: "PointwiseConvolution"
  bottom: "conv5_4/dw"
  top: "conv5_4/sep"
  param {
    lr_mult: 1.0
    decay_mult: 1.0
  }
  convolution_param {
    num_output: 413
    bias_term: true
    pad: 0
    kernel_size: 1
    stride: 1
    weight_filler {
      type: "msra"
    }
  }
  
}
layer {
  name: "relu5_4/sep"
  type: "ReLU"
  bottom: "conv5_4/sep"
  top: "conv5_4/sep"
  
}
layer {
  name: "conv5_5/dw"
  type: "DepthwiseConvolution"
  bottom: "conv5_4/sep"
  top: "conv5_5/dw"
  param {
    lr_mult: 1.0
    decay_mult: 1.0
  }
  convolution_param {
    num_output: 413
    bias_term: true
    pad: 1
    kernel_size: 3
    group: 413
    stride: 1
    weight_filler {
      type: "msra"
    }
  }
  
}
layer {
  name: "relu5_5/dw"
  type: "ReLU"
  bottom: "conv5_5/dw"
  top: "conv5_5/dw"
  
}
layer {
  name: "conv5_5/sep"
  type: "PointwiseConvolution"
  bottom: "conv5_5/dw"
  top: "conv5_5/sep"
  param {
    lr_mult: 1.0
    decay_mult: 1.0
  }
  convolution_param {
    num_output: 394
    bias_term: true
    pad: 0
    kernel_size: 1
    stride: 1
    weight_filler {
      type: "msra"
    }
  }
  
}
layer {
  name: "relu5_5/sep"
  type: "ReLU"
  bottom: "conv5_5/sep"
  top: "conv5_5/sep"
  
}
layer {
  name: "conv5_6/dw"
  type: "DepthwiseConvolution"
  bottom: "conv5_5/sep"
  top: "conv5_6/dw"
  param {
    lr_mult: 1.0
    decay_mult: 1.0
  }
  convolution_param {
    num_output: 394
    bias_term: true
    pad: 1
    kernel_size: 3
    group: 394
    stride: 2
    weight_filler {
      type: "msra"
    }
  }
  
}
layer {
  name: "relu5_6/dw"
  type: "ReLU"
  bottom: "conv5_6/dw"
  top: "conv5_6/dw"
  
}
  
layer {
  name: "conv5_6/sep"
  type: "PointwiseConvolution"
  bottom: "conv5_6/dw"
  top: "conv5_6/sep"
  param {
    lr_mult: 1.0
    decay_mult: 1.0
  }
  convolution_param {
    num_output:  394
    bias_term: true
    pad: 0
    stride: 1
    kernel_size: 1
    weight_filler {
      type: "msra"
    }
  }
}

layer {
  name: "relu5_6/sep"
  type: "ReLU"
  bottom: "conv5_6/sep"
  top: "conv5_6/sep"
}

layer {
  name: "conv5_7/dw"
  type: "DepthwiseConvolution"
  bottom: "conv5_6/sep"
  top: "conv5_7/dw"
  param {
    lr_mult: 1.0
    decay_mult: 1.0
  }
  convolution_param {
    num_output:  394
    group: 394
    bias_term: true
    pad: 1
    stride: 1
    kernel_size: 3
    weight_filler {
      type: "msra"
    }
  }
}

layer{
  name: "relu5_7/dw"
  type: "ReLU"
  bottom: "conv5_7/dw"
  top: "conv5_7/dw"
}
  
layer {
  name: "conv5_7/sep"
  type: "PointwiseConvolution"
  bottom: "conv5_7/dw"
  top: "conv5_7/sep"
  param {
    lr_mult: 1.0
    decay_mult: 1.0
  }
  convolution_param {
    num_output:  394
    bias_term: true
    pad: 0
    stride: 1
    kernel_size: 1
    weight_filler {
      type: "msra"
    }
  }
}

layer {
  name: "relu5_7/sep"
  type: "ReLU"
  bottom: "conv5_7/sep"
  top: "conv5_7/sep"
}

layer {
  name: "conv5_8/dw"
  type: "DepthwiseConvolution"
  bottom: "conv5_7/sep"
  top: "conv5_8/dw"
  param {
    lr_mult: 1.0
    decay_mult: 1.0
  }
  convolution_param {
    num_output:  394
    group: 394
    bias_term: true
    pad: 1
    stride: 1
    kernel_size: 3
    weight_filler {
      type: "msra"
    }
  }
}

layer{
  name: "relu5_8/dw"
  type: "ReLU"
  bottom: "conv5_8/dw"
  top: "conv5_8/dw"
}
  
layer {
  name: "conv5_8/sep"
  type: "PointwiseConvolution"
  bottom: "conv5_8/dw"
  top: "conv5_8/sep"
  param {
    lr_mult: 1.0
    decay_mult: 1.0
  }
  convolution_param {
    num_output:  394
    bias_term: true
    pad: 0
    stride: 1
    kernel_size: 1
    weight_filler {
      type: "msra"
    }
  }
}

layer {
  name: "relu5_8/sep"
  type: "ReLU"
  bottom: "conv5_8/sep"
  top: "conv5_8/sep"
}

layer {
  name: "conv5_9/dw"
  type: "DepthwiseConvolution"
  bottom: "conv5_8/sep"
  top: "conv5_9/dw"
  param {
    lr_mult: 1.0
    decay_mult: 1.0
  }
  convolution_param {
    num_output:  394
    group: 394
    bias_term: true
    pad: 1
    stride: 1
    kernel_size: 3
    weight_filler {
      type: "msra"
    }
  }
}

layer{
  name: "relu5_9/dw"
  type: "ReLU"
  bottom: "conv5_9/dw"
  top: "conv5_9/dw"
}
  
layer {
  name: "conv5_9/sep"
  type: "PointwiseConvolution"
  bottom: "conv5_9/dw"
  top: "conv5_9/sep"
  param {
    lr_mult: 1.0
    decay_mult: 1.0
  }
  convolution_param {
    num_output:  394
    bias_term: true
    pad: 0
    stride: 1
    kernel_size: 1
    weight_filler {
      type: "msra"
    }
  }
}

layer {
  name: "relu5_9/sep"
  type: "ReLU"
  bottom: "conv5_9/sep"
  top: "conv5_9/sep"
}

layer {
  name: "conv5_10/dw"
  type: "DepthwiseConvolution"
  bottom: "conv5_9/sep"
  top: "conv5_10/dw"
  param {
    lr_mult: 1.0
    decay_mult: 1.0
  }
  convolution_param {
    num_output:  394
    group: 394
    bias_term: true
    pad: 1
    stride: 1
    kernel_size: 3
    weight_filler {
      type: "msra"
    }
  }
}

layer{
  name: "relu5_10/dw"
  type: "ReLU"
  bottom: "conv5_10/dw"
  top: "conv5_10/dw"
}
layer {
  name: "conv5_10/sep"
  type: "PointwiseConvolution"
  bottom: "conv5_10/dw"
  top: "conv5_10/sep"
  param {
    lr_mult: 1.0
    decay_mult: 1.0
  }
  convolution_param {
    num_output: 131
    bias_term: true
    pad: 0
    kernel_size: 1
    stride: 1
    weight_filler {
      type: "msra"
    }
  }
  
}
layer {
  name: "relu5_10/sep"
  type: "ReLU"
  bottom: "conv5_10/sep"
  top: "conv5_10/sep"
  
}
layer {
  name: "conv6/dw"
  type: "DepthwiseConvolution"
  bottom: "conv5_10/sep"
  top: "conv6/dw"
  param {
    lr_mult: 1.0
    decay_mult: 1.0
  }
  convolution_param {
    num_output: 131
    bias_term: true
    pad: 1
    kernel_size: 3
    group: 131
    stride: 1
    weight_filler {
      type: "msra"
    }
  }
  
}
layer {
  name: "relu6/dw"
  type: "ReLU"
  bottom: "conv6/dw"
  top: "conv6/dw"
  
}
layer {
  name: "conv6/sep"
  type: "PointwiseConvolution"
  bottom: "conv6/dw"
  top: "conv6/sep"
  param {
    lr_mult: 1.0
    decay_mult: 1.0
  }
  convolution_param {
    num_output: 1024
    bias_term: true
    pad: 0
    kernel_size: 1
    stride: 1
    weight_filler {
      type: "msra"
    }
  }
  
}
layer {
  name: "relu6/sep"
  type: "ReLU"
  bottom: "conv6/sep"
  top: "conv6/sep"
  
}
layer {
  name: "pool6"
  type: "Pooling"
  bottom: "conv6/sep"
  top: "pool6"
  pooling_param {
    pool: AVE
    global_pooling: true
  }
  
}
layer {
  name: "drop1"
  type: "Dropout"
  bottom: "pool6"
  top: "pool6"
  dropout_param {
    dropout_ratio: 0.5
  }
  
}
layer {
  name: "vizinsight/aic18"
  type: "PointwiseConvolution"
  bottom: "pool6"
  top: "vizinsight/classifier"
  param {
    lr_mult: 10.0
    decay_mult: 1.0
  }
  param {
    lr_mult: 1.0
    decay_mult: 0.0
  }
  convolution_param {
    num_output: 1142
    kernel_size: 1
    weight_filler {
      type: "xavier"
    }
    bias_filler {
      type: "constant"
      value: 0.0
    }
  }
  
}
layer {
  name: "prob"
  type: "Softmax"
  bottom: "vizinsight/classifier"
  top: "prob"
  
}
